examples/data/adp-model-dist.pt (torch, 18772 bytes, 8 tensors)

sequential_stack.0.weight f4 [33, 45]
0.076144114 0.028790375 0.088886276 0.024246672 0.07872448 0.048820715 0.102986634 -0.017900623
-0.0071220603 -0.029575715 -0.12383101 -0.053210285 0.046080433 -0.114811696 -0.09078472 0.12705597
0.027755206 0.10963212 -0.08958936 -0.14700238 -0.047276802 0.055611514 -0.008779205 -0.04735952
0.13281909 0.14590266 -0.09035781 -0.09793608 0.080673635 0.14420542 -0.050487254 0.06712593
-0.047939315 0.043574 -0.07952788 -0.094859965 0.03371379 -0.120016985 -0.07022602 0.07034006
-0.04035572 -0.11421704 -0.07789147 -0.019126678 0.03639699 0.107484736 -0.016748069 -0.08814994
0.10814599 0.03089806 0.0733791 -0.18276879 0.23034196 -0.008972997 0.116981596 0.24225292
0.34643027 -0.15163246 0.015108153 -0.21365625 0.084117636 0.05611112 0.042845804 0.61291987
-0.544607 0.04139369 0.075919054 0.27680862 0.2801526 -0.41859648 0.4188813 -0.15890093
0.001269672 0.07911216 0.0694022 0.97774905 -0.0076876576 0.06718211 0.2049388 0.12378904
0.12641558 0.09407949 -0.22253124 -0.29105613 -0.07110532 -0.08572765 0.056591716 0.1340249
0.027312752 0.05828205 0.12760234 0.20799495 0.049450245 0.023821926 -0.022445649 0.14714168
-0.044891175 -0.09314843 -0.17987242 0.032915 0.045263186 -0.033819634 0.17634733 -0.08803197
0.011364399 0.00054343924 -0.16865857 0.13780698 -0.45270577 0.2774833 -0.14800625 0.10166888
-0.109945655 -0.09746527 0.34633464 -0.15045278 0.07335792 -0.17434119 -0.18619499 -0.06522251
-0.47497764 -0.014099085 -0.11839582 -0.0339004 0.091697425 0.23295805 -0.26961488 0.34901065
0.3495524 0.11237826 0.23919478 0.026718995 0.046709545 0.2777711 0.16612913 -0.06560303
-0.01837542 0.036738366 0.06808059 -0.07605225 0.30649745 0.37267643 0.25818887 0.14081295
-0.036913477 0.11335808 0.17280604 -0.51796174 0.15026362 0.34190175 0.005365813 0.013980944
0.1198691 0.46835458 -0.5231415 -0.034125537 0.17096713 -0.06814643 -0.06181498 -0.10883386
0.17545241 0.025292918 0.38324675 -0.21839848 -0.008963827 0.7764316 0.21247533 -0.0012600388
0.222901 0.23820736 -0.12681554 -0.2681534 0.12464475 -0.057449248 -0.1290888 -0.09301046
0.06990389 -0.0073160683 0.002826492 -0.019614808 0.13850081 0.059388127 0.27398625 0.00381005
-0.001979481 -0.01779412 0.009174476 -0.18356578 -0.2713348 0.09176439 -0.07067515 -0.07241818
0.34647194 0.048063803 -4.0913965e-05 0.0034303425 -0.20228986 -0.07283188 -0.5533368 0.54579234
-0.18373491 0.0198793 -0.11635916 -0.15697715 0.44026092 -0.22864194 0.20034121 0.02373101
-0.30178115 -0.13906327 -0.1250987 0.045829307 0.034222092 0.19409056 -0.14227153 0.20218424
-0.10430118 0.30156103 0.016262671 -0.011083531 0.19606899 0.115503326 0.035055753 0.058495373
0.13432436 0.015341938 0.029616171 0.13483664 0.010562461 0.040401302 0.08051022 -0.15852109
0.2371484 0.14916871 -0.10859973 0.10890707 0.28124014 -0.45763242 -0.024414135 -0.1268617
0.12793016 0.19706865 0.090380065 0.7558622 -0.6414143 0.0022469636 -0.26817223 -0.036985945
0.07985516 -0.59977424 0.6274497 -0.09564962 0.071761765 0.1372401 0.14426522 1.0301217
00000000: 72f1 9b3d cbd9 eb3c 020a b63d f5a0 c63c
00000010: 4d3a a13d 3bf8 473d a8ea d23d 54a4 92bc
00000020: 2c60 e9bb c548 f2bc 1d9b fdbd 07f3 59bd
00000030: d6be 3c3d 6522 ebbd 57ed b9bd f61a 023e
00000040: e35e e33c ce86 e03d a07a b7bd cb87 16be
00000050: 52a5 41bd e6c8 633d a8d6 0fbc 0efc 41bd
00000060: ba01 083e 8267 153e 840d b9bd b692 c8bd
00000070: 3838 a53d 96aa 133e b9cb 4ebd 5279 893d
00000080: 045c 44bd a77a 323d 83df a2bd f145 c2bd
00000090: 7917 0a3d 77cb f5bd a9d2 8fbd 730e 903d
000000a0: 0a4c 25bd a0ea e9bd 9085 9fbd 8daf 9cbc
000000b0: 0315 153d f520 dc3d 3f33 89bc f587 b4bd
000000c0: a57b dd3d ee1d fd3c c847 963d be27 3bbe
000000d0: c3de 6b3e 7a03 13bc 0c94 ef3d 2611 783e
000000e0: 4f5f b13e 8a45 1bbe 3088 773c b4c8 5abe
000000f0: de45 ac3d c6d4 653d 157f 2f3d 51e8 1c3f
00000100: 5d6b 0bbf 6e8c 293d 737b 9b3d dcb9 8d3e
00000110: 2970 8f3e 4752 d6be 9c77 d63e edb6 22be
00000120: 1f6b a63a 8e05 a23d be22 8e3d c34d 7a3f
00000130: bfe8 fbbb c696 893d 7adb 513e 1c85 fd3d
00000140: 1673 013e bfac c03d 3bdf 63be 4f05 95be
00000150: aa9f 91bd fa91 afbd b7cc 673d d33d 093e
00000160: febe df3c 29b9 6e3d 30aa 023e a1fc 543e
00000170: 578c 4a3d 3326 c33c f0df b7bc 4fac 163e
00000180: cfdf 37bd 9bc4 bebd 7a30 38be e1d1 063d
00000190: e465 393d 7586 0abd 6594 343e 1b4a b4bd
000001a0: bf31 3a3c 9775 0e3a d5b4 2cbe 461d 0d3e
000001b0: 0dc9 e7be 4b12 8e3e f38e 17be c637 d03d
000001c0: 302b e1bd df9b c7bd c652 b13e 4b10 1abe
000001d0: ad3c 963d 7f86 32be e6a9 3ebe 6193 85bd
000001e0: 4530 f3be d9ff 66bc 8279 f2bd 25db 0abd
000001f0: dccb bb3d 8e8c 6e3e f60a 8abe 86b1 b23e
00000200: 88f8 b23e 9326 e63d 7aef 743e cbe1 da3c
00000210: 8252 3f3d 0338 8e3e c11d 2a3e e25a 86bd
00000220: 0c88 96bc f87a 163d d66d 8b3d 48c1 9bbd
00000230: 3ced 9c3e 72cf be3e 5531 843e 4531 103e
00000240: 9632 17bd 4828 e83d 11f4 303e 2499 04bf
00000250: b5de 193e bf0d af3e b4d3 af3b 5410 653c
00000260: ee7d f53d 2ccc ef3e 9aec 05bf 38c7 0bbd
00000270: 0212 2f3e 5b90 8bbd b431 7dbd 49e4 debd
00000280: cca9 333e 1833 cf3c eb38 c43e daa3 5fbe
00000290: 04dd 12bc 39c4 463f 2293 593e e327 a5ba
000002a0: 2940 643e a1ec 733e efdb 01be 674b 89be
000002b0: bf45 ff3d e74f 6bbd db2f 04be 457c bebd
000002c0: c529 8f3d a1bb efbb ab3c 393b 3caf a0bc
000002d0: 28d3 0d3e f740 733d ed47 8c3e 08b2 793b
000002e0: 2eba 01bb f9c4 91bc 8b50 163c abf8 3bbe
000002f0: 65ec 8abe f8ee bb3d 22be 90bd fc4f 94bd
00000300: c564 b13e 8dde 443d 099b 2bb8 99cf 603b
00000310: 1325 4fbe e128 95bd 7ba7 0dbf 0cb9 0b3f
00000320: 0125 3cbe ead9 a23c b64d eebd 9ebe 20be
00000330: e169 e13e 1d21 6abe 3f26 4d3e 8967 c23c
00000340: 0f83 9abe 9a66 0ebe e019 00be 83b7 3b3d
00000350: 772c 0c3d adbf 463e a1af 11be 6309 4f3e
00000360: db9b d5bd 3566 9a3e 4b39 853c b397 35bc
00000370: 4fc6 483e 028d ec3d 9f96 0f3d d898 6f3d
00000380: 538c 093e c05c 7b3c 9d9d f23c 9e12 0a3e
00000390: 2c0e 2d3c d67b 253d 8be2 a43d 5a53 22be
000003a0: 08d7 723e afbf 183e 8969 debd ab0a df3d
000003b0: b5fe 8f3e cc4e eabe 2700 c8bc 09e8 01be
000003c0: 2000 033e 5dcc 493e 2f19 b93d 2f80 413f
000003d0: ba33 24bf cb41 133b df4d 89be 937e 17bd
000003e0: 1a8b a33d ce8a 19bf 8ba0 203f f3e3 c3bd
000003f0: d5f7 923d ab88 0c3e 43ba 133e 07db 833f

sequential_stack.0.bias f4 [33]
-0.033456005 -0.47936788 0.62627596 -0.7674219 0.5921413 -0.072376885 -0.068877615 -0.5137599
-0.08985319 -0.57182544 -0.30555135 -0.48947608 0.6569858 0.019963626 0.0569812 -0.028568398
0.5025228 0.59203523 0.21250837 0.002923862 0.069077805 -0.1368937 -0.071064845 -0.13515255
-0.343762 -0.10851679 -0.23444535 -0.32878125 -0.1381905 -0.096643634 -0.034245577 -0.057804123
-0.5427624
00000000: 2a09 09bd b56f f5be 9f53 203f c375 44bf
00000010: 9296 173f 553a 94bd b50f 8dbd c585 03bf
00000020: f304 b8bd 2763 12bf 3a71 9cbe 9c9c fabe
00000030: 3930 283f c28a a33c 1e65 693d 4608 eabc
00000040: 56a5 003f 9f8f 173f cb9b 593e 449e 3f3b
00000050: aa78 8d3d dd2d 0cbe 728a 91bd 6e65 0abe
00000060: 9301 b0be 0d3e debd 7112 70be 0456 a8be
00000070: cf81 0dbe 19ed c5bd 1745 0cbd 04c4 6cbd
00000080: 7af2 0abf

sequential_stack.1.weight f4 [33, 33]
0.043094564 0.3123303 0.23218136 -0.60488904 0.3050451 0.31652373 -0.031991363 -0.4077576
-0.110943764 0.123063855 -0.046696316 -0.19655137 0.21741596 0.14920619 -0.009102348 0.031551447
0.70439583 0.4656571 -0.04270205 -0.06845512 0.15860765 -0.16512172 -0.12802559 -0.052925464
-0.35614556 0.1703744 0.25745267 -0.53394824 -0.057697583 0.051202077 -0.02790515 -0.1045001
-0.7304951 0.1685393 -0.17059065 0.074695505 -0.10887075 -0.15770376 0.10974639 0.07748929
-0.1555819 0.14196688 -0.017439354 0.00793349 -0.1044996 0.0085282745 -0.11728448 0.034411673
-0.065486394 0.021093102 -0.08965902 0.041715533 -0.09316236 -0.11788017 0.14529794 0.017880451
-0.072809555 0.03956763 0.024850316 -0.078303166 -0.011596035 -0.0017830253 -0.061174463 -0.11335212
-0.06357871 0.16019301 -0.09152522 0.821129 -0.32761857 1.2290329 -0.46768668 -0.20474277
-0.15702438 0.042703576 0.009496775 0.80922097 0.6343251 1.7677078 -0.23096709 0.025067898
0.04001508 0.02050228 0.91503286 -0.33794716 -0.40448114 0.13113144 0.022372441 -0.06378519
-0.1275736 0.052614667 0.09353347 -0.14434956 0.4528153 -0.43690473 -0.1117587 0.16818443
-0.10189792 0.021858692 -0.11344194 -0.005495521 -0.12729523 0.1308324 -0.020605313 -0.090745375
-0.13306984 -0.15998468 -0.04356487 0.12172951 0.006615945 0.05660832 -0.16081196 -0.011078279
-0.16803966 -0.11238034 0.10236977 -0.072936974 0.1188325 -0.028356066 -0.13124855 -0.036887243
-0.010533675 -0.15618981 0.036288247 -0.107391864 0.085215315 -0.16963442 -0.104567915 0.0037467356
0.052326426 -0.008857147 -0.024770567 0.06732341 -0.15564367 -0.087519415 0.01987326 -0.1656645
-0.07869054 -0.060587015 0.055031117 -0.09645972 -0.06721536 -0.08150971 0.006169695 -0.16470784
-0.07055472 0.1637896 0.040723834 0.14580566 -0.12705414 0.0023862731 -0.18281847 -0.019757358
0.10287128 -0.114883944 0.07963484 0.0700539 -0.02791861 -0.15335725 -0.003026213 -0.11624069
-0.042762727 0.0025044573 0.0762099 -0.08825482 -0.066784956 -0.013945133 -0.38013563 -0.20770341
0.37959787 -0.10023746 0.065282 -0.105531625 0.6336446 -0.059520636 -0.14191411 0.2988331
1.929445 -0.058013935 0.030297548 -0.02884296 -0.1491612 -1.4977441 -0.51437217 -0.049561787
-0.14367975 -0.085200295 0.050141048 0.14167361 -0.022944504 0.33026242 0.12602057 0.0326838
-0.22785681 -0.16612834 -0.076273255 0.06257244 0.08552014 0.8313394 -0.12560984 -0.08637482
0.013261017 0.16285662 0.08572474 0.148071 0.14336775 -0.058465984 -0.16219883 -0.08150839
-0.15530835 0.021371089 0.04081886 -0.12122198 0.010374384 0.11122891 0.037957873 -0.14811859
-0.03081943 -0.08213332 0.01333571 0.10769195 -0.030738626 0.033717215 0.0056262435 0.16564733
-0.12676169 0.013890647 0.032176737 0.07991001 -0.10952057 0.13132827 -0.06659586 -0.13071927
0.60496765 -0.20492086 0.67102575 -0.119790904 -0.2587056 0.11653397 0.43671605 0.055775933
0.07397387 0.29220572 1.5854677 -0.24960527 0.12564093 0.12070327 0.14779453 -0.9415154
-0.27108255 -0.3106138 -0.034041315 0.15768915 -0.09481012 -0.022996714 -0.051755983 0.51239574
00000000: ed83 303d c2e9 9f3e f3c0 6d3e 02da 1abf
00000010: df2e 9c3e 660f a23e 6009 03bd 9bc5 d0be
00000020: 7c36 e3bd e708 fc3d a344 3fbd c344 49be
00000030: 4aa2 5e3e 82c9 183e 0422 15bc 173c 013d
00000040: 4953 343f 9b6a ee3e 58e8 2ebd 3332 8cbd
00000050: 0b6a 223e ab15 29be 2419 03be 5fc8 58bd
00000060: b658 b6be a076 2e3e d6d0 833e d5b0 08bf
00000070: 4d54 6cbd 45b9 513d 5799 e4bc 2604 d6bd
00000080: ba01 3bbf 9195 2c3e 51af 2ebe f5f9 983d
00000090: a1f7 debd 187d 21be b7c2 e03d b4b2 9e3d
000000a0: dd50 1fbe c45f 113e fadc 8ebc 78fb 013c
000000b0: e303 d6bd 2dba 0b3c d832 f0bd 41f3 0c3d
000000c0: bb1d 86bd 71cb ac3c 269f b7bd e8dd 2a3d
000000d0: e8cb bebd 296b f1bd fcc8 143e 067a 923c
000000e0: 2d1d 95bd ab11 223d e492 cb3c 695d a0bd
000000f0: 4cfd 3dbc 67b4 e9ba 1392 7abd 2825 e8bd
00000100: 8e35 82bd a309 243e 9371 bbbd 8335 523f
00000110: 9fbd a7be f350 9d3f a174 efbe 17a8 51be
00000120: 00cb 20be f2e9 2e3d 5d98 1b3c 1b29 4f3f
00000130: 2163 223f 4044 e23f a382 6cbe 315b cd3c
00000140: dae6 233d 66f4 a73c 983f 6a3f 6907 adbe
00000150: 2718 cfbe 5247 063e 6946 b73c cfa1 82bd
00000160: a7a2 02be 7a82 573d 7a8e bf3d 5fd0 13be
00000170: 68d7 e73e fab1 dfbe bfe1 e4bd 8a38 2c3e
00000180: dbaf d0bd 0011 b33c 3f54 e8bd c513 b4bb
00000190: ae59 02be eef8 053e 79cc a8bc b6d8 b9bd
000001a0: 7643 08be 06d3 23be 1471 32bd 524d f93d
000001b0: 92ca d83b 20de 673d e4ab 24be ac81 35bc
000001c0: 9712 2cbe aa27 e6bd 3ea7 d13d fb5f 95bd
000001d0: 745e f33d fb4a e8bc 0566 06be 1417 17bd
000001e0: 6f95 2cbc 39f0 1fbe fca2 143d 44f0 dbbd
000001f0: 5e85 ae3d a5b4 2dbe b427 d6bd cb8b 753b
00000200: 3c54 563d 911d 11bc a5eb cabc dbe0 893d
00000210: 0e61 1fbe 613d b3bd 3fcd a23c f4a3 29be
00000220: 8128 a1bd 172a 78bd 4f68 613d ac8c c5bd
00000230: 35a8 89bd 90ee a6bd 272b ca3b 2ca9 28be
00000240: fe7e 90bd 76b8 273e 09ce 263d 144e 153e
00000250: 7b1a 02be 0563 1c3b c434 3bbe 2fda a1bc
00000260: 2dae d23d 4648 ebbd 9717 a33d 6b78 8f3d
00000270: 92b5 e4bc af09 1dbe 6e53 46bb 990f eebd
00000280: f827 2fbd d221 243b f013 9c3d f1be b4bd
00000290: 8dc6 88bd 217a 64bc 23a1 c2be 34b0 54be
000002a0: a75a c23e 4c49 cdbd 92b2 853d f720 d8bd
000002b0: 8836 223f e9cb 73bd ef51 11be a700 993e
000002c0: 0ef8 f63f 05a0 6dbd 9032 f83c 1248 ecbc
000002d0: b7bd 18be 14b6 bfbf e5ad 03bf 4d01 4bbd
000002e0: c920 13be 7e7d aebd b360 4d3d e312 113e
000002f0: 1df6 bbbc 2818 a93e 890b 013e 73df 053d
00000300: 4c53 69be 8c1d 2abe 2735 9cbd fb25 803d
00000310: 2f25 af3d a9d2 543f de9f 00be 48e5 b0bd
00000320: bd44 593c e3c3 263e 7490 af3d ed9f 173e
00000330: ffce 123e 077a 6fbd 7317 26be dfed a6bd
00000340: 2709 1fbe 6c12 af3c ad31 273d 3b43 f8bd
00000350: 52f9 293c fccb e33d b779 1b3d 66ac 17be
00000360: 0779 fcbc 8435 a8bd 067e 5a3c 998d dc3d
00000370: 92cf fbbc 101b 0a3d 5a5c b83b 749f 293e
00000380: d1cd 01be 9995 633c c1cb 033d dca7 a33d
00000390: 524c e0bd eb7a 063e 6963 88bd 46db 05be
000003a0: 29df 1a3f c6d6 51be 58c8 2b3f ef54 f5bd
000003b0: 0f75 84be 5da9 ee3d 3f99 df3e 4e75 643d
000003c0: 9d7f 973d fd9b 953e 9bf0 ca3f 8698 7fbe
000003d0: 04a8 003e 4733 f73d 7357 173e 2707 71bf
000003e0: 55cb 8abe c608 9fbe e86e 0bbd 4479 213e
000003f0: cf2b c2bd 9b63 bcbc 15fe 53bd 5e2c 033f

sequential_stack.1.bias f4 [33]
0.8413074 -0.066064656 -0.3965978 -0.09736564 0.0816526 0.055570126 0.044265132 -0.309717
-0.20941633 0.043314222 -0.3397016 -0.084347 0.6809866 -0.80255806 0.23856628 0.10212251
-0.02954068 -0.6178284 0.85809976 0.49661094 -0.7720124 -0.05051036 -0.13401677 -0.3981009
-0.9283809 -0.0026953048 0.4594844 -0.12450487 -0.16293408 0.30801985 -0.39310318 -0.090594
0.48842144
00000000: ec5f 573f e84c 87bd de0e cbbe a367 c7bd
00000010: 7a39 a73d 809d 633d 5b4f 353d 3a93 9ebe
00000020: 3c71 56be 416a 313d 5eed adbe 1fbe acbd
00000030: 2355 2e3f 7274 4dbf b84a 743e 9b25 d13d
00000040: 4cff f1bc 012a 1ebf 6dac 5b3f ca43 fe3e
00000050: 9ba2 45bf f4e3 4ebd b13b 09be e2d3 cbbe
00000060: 5faa 6dbf b6a3 30bb 8a41 eb3e 69fc febd
00000070: 31d8 26be c7b4 9d3e d244 c9be 5989 b9bd
00000080: 6012 fa3e

sequential_stack.2.weight f4 [33, 33]
-0.16652584 0.01866748 0.18966033 -0.11622318 -0.13701905 1.1120082 -0.06860201 1.1620532
0.5251357 0.039839935 -0.8090876 0.11724135 -0.5160802 1.197661 -0.23185763 0.12430784
1.0487376 0.43616557 -0.40983889 -0.53440773 1.0018603 -0.0351739 0.07355811 0.40022027
-1.5771217 -0.005740179 -0.47388738 -0.7510631 -0.07006063 -0.28304517 -0.4447361 -0.025339065
-0.32699957 -0.08508608 0.0013766246 -0.17613511 0.120413706 -0.1505855 0.0889389 -0.090802416
-0.09881973 -0.034063876 -0.04349775 -0.10263863 0.1175229 -0.17537965 -0.16251689 -0.0014224643
0.080255896 -0.16045667 0.115553916 0.03583582 0.08210241 -0.20300615 -0.072810136 -0.1684551
0.020576704 -0.13767366 0.14013284 -0.0039570616 0.11736468 -0.16170365 -0.035898574 -0.17451812
-0.12553866 0.041464932 0.73684436 0.056038734 -0.46116132 0.14309701 0.13961963 -1.2442904
-0.14458092 -1.6352094 -1.6041713 0.099488236 -1.3988706 -0.0688321 0.43187526 -1.146927
0.56429267 0.073650345 -0.2990339 -0.23093455 0.7424112 0.44612482 -0.82967895 0.13412318
-0.08651923 -2.2771993 -1.0239536 -0.025201373 0.6856122 -3.10584 0.107811965 0.46594593
0.52791977 0.061438404 0.7504082 -0.025288245 -0.08726594 -0.02411955 0.123257205 0.12826028
-0.16191117 0.13852824 0.15373707 0.04703864 -0.088624716 0.13322371 0.050250478 -0.08135036
-0.057077873 0.029147755 0.036658537 0.08407306 -0.05925859 -0.05014415 -0.161493 -0.18001571
-0.1156293 -0.14844903 0.14261112 -0.08465911 0.16869746 -0.014852612 -0.13898987 0.004986544
-0.1691059 0.106912486 0.017618878 0.15279709 0.640365 -0.097401634 0.9151672 -0.097520806
-0.041618764 -0.91884214 0.122940265 -0.26798177 -0.9367414 0.09538644 1.3273549 0.78174055
0.5197463 0.54513526 1.023642 0.03686234 -0.42785084 1.044947 -0.8118274 0.5934278
0.54625255 -0.1695582 -0.015574982 -0.047985252 2.8239684 0.17010087 1.0636319 -0.28867936
-0.107911095 -0.068809465 1.7000883 0.074723415 0.14846158 -0.093134075 0.080526434 -0.056190718
-0.10098863 -0.15983552 -0.12536311 -0.061449174 0.010159916 -0.07756916 0.019876016 -0.09060839
-0.12729758 0.077614225 -0.05274733 -0.14851701 -0.072120905 0.104688644 -0.04203955 0.025954762
0.09217369 -0.11244272 0.099737816 0.123234145 0.043755487 -0.07447454 0.004778156 0.09515765
-0.082327284 -0.029812975 -0.17254408 -0.0037892142 0.111909464 -0.13773285 0.08084634 -0.0056405123
0.69967806 -0.018928826 -0.061167177 -0.18537757 0.12550388 0.8198253 -0.52076304 -0.14059867
1.0157286 0.72147167 -0.4266661 0.33194584 -0.06116423 0.002222532 0.23534401 0.2616017
-0.4828912 -0.4639869 0.3323709 0.015743652 -0.15420675 -0.1222855 -0.35064307 0.084502146
-0.21563493 1.7373556 0.1138554 -0.54257286 1.0235667 -0.12475508 -0.34877792 0.8242754
-0.036025405 0.8436072 0.053075615 -0.10150328 -0.5721998 0.051647447 -0.44484037 -0.66372424
0.09663459 1.5038444 0.5890013 0.22789805 -0.55866915 -0.108274765 0.035336018 -1.7022401
0.3549564 0.7174091 0.3407287 -0.57686645 -0.04577672 -0.10206086 -0.27774686 -0.92486066
00000000: c085 2abe 8bec 983c 5136 423e 6b06 eebd
00000010: b94e 0cbe 4956 8e3f 367f 8cbd 29be 943f
00000020: 4b6f 063f 332f 233d 5d20 4fbf 3c1c f03d
00000030: d51d 04bf f54c 993f 166c 6dbe 1c95 fe3d
00000040: 093d 863f 1851 df3e 67d6 d1be f2ce 08bf
00000050: f53c 803f 8212 10bd a2a5 963d ace9 cc3e
00000060: 20df c9bf 1d18 bcbb 5ea1 f2be ac45 40bf
00000070: f37b 8fbd 4ceb 90be 73b4 e3be df93 cfbc
00000080: 7d6c a7be 9c41 aebd db6f b43a c35c 34be
00000090: 769b f63d 1633 1abe 9925 b63d 9ef6 b9bd
000000a0: 0062 cabd 9086 0bbd b22a 32bd 3434 d2bd
000000b0: d9af f03d b996 33be d46a 26be fb71 baba
000000c0: 345d a43d c14e 24be 88a7 ec3d 95c8 123d
000000d0: 4f25 a83d d8e0 4fbe 7b1d 95bd 7e7f 2cbe
000000e0: 7a90 a83c 53fa 0cbe fc7e 0f3e 3daa 81bb
000000f0: e55c f03d a495 25be 620a 13bd e1b4 32be
00000100: 358d 00be 22d7 293d d5a1 3c3f df88 653d
00000110: 561d ecbe 0688 123e 73f8 0e3e e844 9fbf
00000120: 050d 14be 8b4e d1bf 7c55 cdbf 7dc0 cb3d
00000130: 310e b3bf d8f7 8cbd c11e dd3e 81ce 92bf
00000140: 7c75 103f fed5 963d f91a 99be 1b7a 6cbe
00000150: a90e 3e3f 796a e43e d765 54bf 9657 093e
00000160: fe30 b1bd a2bd 11c0 e910 83bf 1c73 cebc
00000170: 4884 2f3f 15c6 46c0 85cc dc3d 7790 ee3e
00000180: c025 073f d6a6 7b3d c01a 403f 4b29 cfbc
00000190: 7cb8 b2bd 5d96 c5bc 466e fc3d aa56 033e
000001a0: 0bcc 25be 59da 0d3e 406d 1d3e 97ab 403d
000001b0: e080 b5bd cc6b 083e 72d3 4d3d 049b a6bd
000001c0: 7dca 69bd 46c7 ee3c 4327 163d 7f2e ac3d
000001d0: 23b9 72bd f463 4dbd 6c5e 25be 0a56 38be
000001e0: 0ecf ecbd 0603 18be a608 123e c161 adbd
000001f0: 07bf 2c3e 5f58 73bc 5c53 0ebe 2a66 a33b
00000200: 192a 2dbe eff4 da3d 7755 903c d776 1c3e
00000210: f6ee 233f 827a c7bd 6648 6a3f fdb8 c7bd
00000220: 7078 2abd 3d39 6bbf 1bc8 fb3d e834 89be
00000230: 49ce 6fbf f759 c33d c4e6 a93f 2620 483f
00000240: 180e 053f fc8d 0b3f b306 833f f7fc 163d
00000250: 440f dbbe d3c0 853f ecd3 4fbf e2ea 173f
00000260: 35d7 0b3f aaa0 2dbe 362e 7fbc 2f8c 44bd
00000270: e6bb 3440 ec2e 2e3e 1725 883f c8cd 93be
00000280: 7e00 ddbd faeb 8cbd 7e9c d93f 9708 993d
00000290: 5006 183e 14bd bebd 0beb a43d 3d28 66bd
000002a0: 20d3 cebd ecab 23be 305f 00be 21b2 7bbd
000002b0: c775 263c 94dc 9ebd 07d3 a23c e490 b9bd
000002c0: 4c5a 02be 35f4 9e3d 960d 58bd d814 18be
000002d0: 20b4 93bd 0067 d63d aa31 2cbd 159f d43c
000002e0: 8fc5 bc3d 5e48 e6bd 5743 cc3d 2f62 fc3d
000002f0: f438 333d 1c86 98bd 1492 9c3b 04e2 c23d
00000300: 359b a8bd 573a f4bc 65af 30be 7754 78bb
00000310: ca30 e53d d709 0dbe c492 a53d 0cd4 b8bb
00000320: 1a1e 333f a010 9bbc 6f8a 7abd 9ed3 3dbe
00000330: 1784 003e 12e0 513f ba50 05bf 19f9 0fbe
00000340: 6503 823f 5eb2 383f fb73 dabe cef4 a93e
00000350: 5887 7abd e6a7 113b 05fe 703e a8f0 853e
00000360: 843d f7be b18f edbe 852c aa3e d5f8 803c
00000370: 60e8 1dbe d270 fabd 7d87 b3be 760f ad3d
00000380: 67cf 5cbe ab61 de3f 052d e93d 0ee6 0abf
00000390: 3c04 833f 977f ffbd 0593 b2be b603 533f
000003a0: 608f 13bd a4f6 573f d165 593d f4e0 cfbd
000003b0: b07b 12bf 468c 533d 1ec2 e3be d5e9 29bf
000003c0: 5be8 c53d f97d c03f cac8 163f 1b5e 693e
000003d0: f104 0fbf 29bf ddbd 80bc 103d 01e3 d9bf
000003e0: d8bc b53e 1fa8 373f fe73 ae3e 85ad 13bf
000003f0: 5f80 3bbd 4905 d1bd d634 8ebe abc3 6cbf

sequential_stack.2.bias f4 [33]
0.32791463 -0.089762904 0.39807078 -0.1095859 -1.6955549 -0.13197772 0.33645916 0.10871095
0.74583083 -0.037258025 -0.08894707 -2.9641964 -0.05581507 -0.089640856 -0.5898465 7.7413583
-1.2213391 -0.3313042 0.0001847227 0.19991861 -0.13592148 -0.09086882 -1.1570092 0.05347032
-0.009053001 -0.035108138 -2.3156316 0.29245242 -0.10078273 0.7461888 -0.95758486 -0.13662381
0.10944848
00000000: 6de4 a73e 9dd5 b7bd efcf cb3e 936e e0bd
00000010: f107 d9bf 2b25 07be 6044 ac3e d9a3 de3d
00000020: c5ee 3e3f df9b 18bd e229 b6bd 65b5 3dc0
00000030: 589e 64bd a095 b7bd 2e00 17bf 35b9 f740
00000040: d754 9cbf b4a0 a9be 1fb2 4139 77b7 4c3e
00000050: 002f 0bbe 6f19 babd e118 94bf b203 5b3d
00000060: 0a53 14bc 8dcd 0fbd 4f33 14c0 53bc 953e
00000070: 2d67 cebd 3b06 3f3f 4824 75bf 1de7 0bbe
00000080: 8626 e03d

sequential_stack.3.weight f4 [2, 33]
0.9551461 0.014055949 1.8720244 0.10525922 -1.5047731 0.0736992 -1.606193 0.31256482
3.2010143 0.030535392 -0.11623934 2.844133 -0.15127099 -1.7936617 -1.9107993 1.485365
-0.54846466 0.8610881 -1.5176605 -6.110696 -0.1696618 0.06250913 1.2267902 -0.019217752
0.082969494 0.14657451 2.364505 2.2358284 -0.060896207 0.8038809 0.036881432 -0.0030533904
-1.3619157 4.103337 -0.09635316 -0.9360737 0.02801866 -0.3198686 0.033426236 0.4119676
-2.795838 -1.3873216 0.03600585 -0.07423214 0.6786831 -0.1351834 0.30308294 0.4436469
-0.85984766 -1.8167124 2.8198068 -0.39341545 -4.924645 -0.13553555 0.013048501 1.9598413
0.07204263 -0.13463812 -0.11799661 0.67349553 0.6431648 -0.09713693 1.9703616 -1.4671693
0.07441581 -0.73354894
00000000: 7484 743f ec4a 663c 7f9e ef3f 2592 d73d
00000010: 689c c0bf 9bef 963d bb97 cdbf 7f08 a03e
00000020: 6bdd 4c40 5c25 fa3c e40e eebd 4606 3640
00000030: c8e6 1abe b596 e5bf 1295 f4bf 7120 be3f
00000040: 2e68 0cbf 4570 5c3f b342 c2bf d28a c3c0
00000050: d3bb 2dbe c904 803d 7607 9d3f 8c6e 9dbc
00000060: e9eb a93d a117 163e 0d54 1740 d017 0f40
00000070: 4d6e 79bd 23cb 4d3f fc10 173d 641b 48bb
00000080: 4153 aebf 894e 8340 ce54 c5bd 87a2 6fbf
00000090: 6487 e53c d1c5 a3be f3e9 083d 6bed d23e
000000a0: 03ef 32c0 c193 b1bf df7a 133d 0507 98bd
000000b0: 2dbe 2d3f 846d 0abe b02d 9b3e b025 e33e
000000c0: fa1e 5cbf 088a e8bf b777 3440 c06d c9be
000000d0: b196 9dc0 d5c9 0abe 61c9 553c 14dc fa3f
000000e0: 168b 933d 93de 09be 35a8 f1bd 346a 2c3f
000000f0: 73a6 243f baef c6bd cf34 fc3f 34cc bbbf
00000100: 5167 983d ddc9 3bbf

sequential_stack.3.bias f4 [2]
11.313505 0.6890249
00000000: 1e04 3541 f063 303f
