examples/data/adp-model-dist.pt (torch, 18748 bytes, 8 tensors)

sequential_stack.0.weight f4 [33, 45]
00000000: d35d e9bc b627 ce3d c136 0ebe bb50 683d
00000010: eee0 653e 9f2c 2cbc 67b3 82be 3833 563e
00000020: 9212 923e d9f9 9bbd 1ae9 0dbb ea6e 3c3e
00000030: 6447 a9be e973 943d 9561 68be e002 6f3e
00000040: 3f59 0f3e 9604 f03d 00dc ee3e 5a6a 0abf
00000050: 760f c83d 1894 7f3d 1d12 d13d 7f2e 333e
00000060: 764b 2bbe eb6d 993e c06b 04be 34a8 8cbd
00000070: 78aa 733e 6816 703e 231e 553f 1c54 da3d
00000080: ec74 193c 64a1 abbc bb29 963d f1e8 09bd
00000090: 6c18 943c c33d 9ebe c363 26be c6d4 4b3d
000000a0: de57 d73d 084d 3cbd 817b 263e 5b06 49bd
000000b0: 7f3a cb3d dad0 e6bd 40a2 a13c b825 ccbc
000000c0: 2456 2fbd 58dd 483d 7c7c bc3d 64bb 2f3d
000000d0: f841 c2bd b0dc 763d d848 10be e073 a8bd
000000e0: 58ad f5bd 20df f0bb ba6a 0dbe 97f5 d7bd
000000f0: 90e3 443c d891 803c f85a eb3c 48e4 bfbd
00000100: 7c87 6a3d 2c4e a83d 8797 083e da8e 8a3d
00000110: 8aea 00be 547a 0c3d 444e b83d 0868 d4bd
00000120: a84d 6c3d 0042 24ba 88e8 92bd c04c 2f3b
00000130: 4632 c4bd 00d3 6ebd a785 033e 004b ae3b
00000140: 5c60 cebc 50e2 913c e065 b03c d344 123e
00000150: f4ce edbd 8a3b d83d 7e87 d73d 1cfb d8bd
00000160: c803 813c f2c9 d5bd 6cb6 05bd 8829 34bd
00000170: 805c d4bb 98da a8bd 586d 313d cdd4 89bd
00000180: 04be 353d 945b 5fbd f081 1f3c 56e5 00bd
00000190: 53fe 143e 687e b03d c6e9 df3d 6c84 cc3d
000001a0: 5cf3 00be 3e10 843d a563 0f3e 542b 9fbd
000001b0: cce8 a63d 7435 1d3d 0060 b037 78eb a8bd
000001c0: 79de 0d3e c05a 5cbc 7ad4 5cbd 81ed f6bd
000001d0: 4888 973c bd0a ecbd 3091 bd3c 20ae 33bc
000001e0: b30f 13be 60c7 9abb 1003 aabc 90d4 333d
000001f0: d2b8 b63d e096 8d3d 5ed9 f03d 9e7b 79bd
00000200: 34bb 083d d00c 55bc 707d 01bc 3cd0 f9bd
00000210: 96cc 1fbd 043d 0fbd 123a 0cbe a538 223d
00000220: 808b d13d 3f4a 7bbd 8a33 2f3d f3a5 28bd
00000230: 9050 443d e9af 643d 76b0 bebc e06c 9e3d
00000240: bbe2 903c 004f b2bc a045 b1bd cc6c 0d3d
00000250: a9b8 acbd 7458 633d 431c ebbd 8237 8d3d
00000260: 2df0 fd3c c234 c8bd 9edf da3c 5d47 17be
00000270: 42a9 363d 993f 5bbd 4687 d0bc c8a7 3ebd
00000280: 60ac babb 885c 9fbd a2e9 f23d 0b6c 18be
00000290: 9929 0dbe a245 863d d80a 283d 18c4 f5bc
000002a0: a56d c83d 2abd 0fbe 5a41 48bd 9d23 3cbd
000002b0: 5637 033e 4f11 e5bd 9f55 523d 47e0 4a3d
000002c0: efcb b7bd fa22 c73d ae28 ebbd 8cd6 193d
000002d0: 00c4 40be 6a08 42bd 7e86 d53e 24ff f83e
000002e0: 05a1 41bf 75ce 0e3f 3311 933f a446 843e
000002f0: 45e0 b63e b4d1 ca3d 637c a83e 0e72 123f
00000300: c915 1ebf da75 8a3e 5f55 4c3f fe81 dd3a
00000310: b8e6 133d 969a 72be 3d46 f03d c5d5 64bf
00000320: d6f8 30be 4bef 583e b813 2f3c cd9a 84bd
00000330: 7ce1 6b3e 3afc 29be cb21 3d3f b1ec 5b3f
00000340: fe81 5abe 25d0 00be 7abb 5e3f 3468 d83e
00000350: ace4 c9be 1528 5b3f d6bf 143f 3be3 c8be
00000360: 0654 51bf 61dd 3b3f a3d7 9b3e 40d6 31be
00000370: f3ae 373e 77a0 e13e cf7f 913d 921c 563e
00000380: 259f 7b3d c6bb f03c 8e8d 423c 2569 3e3d
00000390: b85c 94be 1035 d53d 1518 8bbd 0b70 c3be
000003a0: 7d60 0d3f 51c0 053f da5c ba3c 43e0 06be
000003b0: c034 f23c 870b 92be 029c ac3d d30f aabe
000003c0: 9d6f c53e 3d83 a53e e2ee 42bd df78 6c3e
000003d0: ee8d f1be 2f6d 353e a7dc f93d e626 1a3e
000003e0: 97d2 ea3d 6bfe 2fbe 67d8 f23d 5269 55bd
000003f0: 422d 88be 6959 c03e cee4 853e 5a68 1f3d
-0.028487122 0.10066168 -0.13888074 0.056717616 0.22449085 -0.010508685 -0.25527498 0.20917976
0.28529793 -0.07616014 -0.0021653832 0.18401685 -0.3306228 0.072486706 -0.22693475 0.2334094
0.13998888 0.11719625 0.46652222 -0.5406853 0.09768574 0.062397093 0.10208533 0.17498206
-0.16728005 0.29966673 -0.12931728 -0.0686802 0.23795497 0.23446047 0.8324911 0.10660574
0.009366255 -0.02095098 0.07332178 -0.033669416 0.018078052 -0.30906495 -0.16248994 0.049763463
0.10514806 -0.0459719 0.1625805 -0.049078327 0.099232666 -0.11270304 0.019730687 -0.02492033
-0.04280676 0.049039215 0.09203431 0.04290332 -0.09485239 0.060269058 -0.14090288 -0.082252264
-0.11995953 -0.0073508173 -0.13810244 -0.105448894 0.012017146 0.015694544 0.0287299 -0.09369713
0.057258114 0.08218035 0.13339053 0.06765528 -0.1258947 0.03429635 0.08999303 -0.10371405
0.057691246 -0.0006265938 -0.07173258 0.0026748627 -0.095799014 -0.058306694 0.12843953 0.0053189993
-0.025192432 0.01780811 0.021532953 0.14284067 -0.11611739 0.10558231 0.1052389 -0.1059477
0.015748873 -0.10438909 -0.032644674 -0.04398492 -0.0064807534 -0.082448184 0.04331717 -0.06730042
0.044370666 -0.054530695 0.009735569 -0.03146871 0.14550142 0.0861786 0.109332606 0.09986195
-0.12592834 0.064484105 0.14002855 -0.07771936 0.08149871 0.038381055 2.1025538e-05 -0.08248037
0.13854398 -0.013449371 -0.05391357 -0.12057019 0.018497601 -0.11525486 0.02314052 -0.010966808
-0.14361458 -0.0047234744 -0.020753413 0.043903887 0.089219704 0.06913543 0.117602095 -0.060908906
0.033381656 -0.013003543 -0.007903442 -0.12197921 -0.039013468 -0.0349703 -0.13694027 0.0396048
0.10231686 -0.061350103 0.04277376 -0.041173887 0.047928393 0.055831823 -0.023277503 0.0773561
0.017686239 -0.021766186 -0.08655858 0.034527585 -0.08433659 0.055504277 -0.1148 0.06895353
0.030998314 -0.09775688 0.026717957 -0.14773317 0.04459501 -0.05352745 -0.025455128 -0.046546727
-0.005696818 -0.07781321 0.11860968 -0.14884965 -0.137854 0.0655625 0.041025966 -0.030000731
0.09786538 -0.14037004 -0.04889045 -0.0459324 0.12814078 -0.11184942 0.051351186 0.049530294
-0.08974444 0.09723468 -0.114823684 0.037558123 -0.18824768 -0.047371306 0.41704172 0.48632157
-0.7563632 0.5578378 1.1489624 0.25835145 0.3571798 0.09903279 0.329074 0.57205284
-0.6175199 0.2704304 0.79817766 0.0016899703 0.036108702 -0.23691782 0.11732147 -0.89388686
-0.17282423 0.21185033 0.010685854 -0.064748384 0.23035234 -0.16600123 0.7387969 0.8590804
-0.2133865 -0.12579401 0.87004817 0.42267 -0.39432275 0.85608035 0.5810522 -0.39235863
-0.81768835 0.7338467 0.30437955 -0.17366886 0.17937832 0.44067737 0.07104456 0.20909336
0.06143107 0.029386412 0.01187457 0.046486992 -0.2897699 0.104105115 -0.06791703 -0.3817142
0.55225354 0.52246577 0.022749353 -0.13171487 0.029566169 -0.2852442 0.08428194 -0.33215198
0.38561717 0.3232669 -0.047591098 0.23092984 -0.47178596 0.17717431 0.12200289 0.15053901
0.11465948 -0.17186897 0.11857682 -0.052102394 -0.2659703 0.37568215 0.26151127 0.038917877

sequential_stack.0.bias f4 [33]
00000000: d5bd 94be 6589 0bbe d976 eabd 800a 043d
00000010: b99a 08be b2c0 3cbe b565 a6bd 2a2d 48be
00000020: 6047 c83c 085d 4f3d 3a9a d43d 60d4 a33c
00000030: 0637 523f c7ab 083f c4c7 dbbd f6df 4fbd
00000040: ac30 a3bd 6021 dd3b 8403 583d b6a0 c1bd
00000050: efa3 bdbd d067 b1be bc9c 0dbf 9aac 7abd
00000060: 6368 08be 6ec1 d23d a846 273d 507c 123d
00000070: c7d9 19bf 7091 26bc 4c47 2ebf 6ae6 4cbd
00000080: c819 fdbe
-0.2905108 -0.1362663 -0.1144845 0.032236576 -0.13340272 -0.18432882 -0.08124868 -0.19548479
0.024448097 0.05062583 0.10380979 0.01999873 0.8211521 0.5338711 -0.10731462 -0.050750695
-0.07968268 0.0067483634 0.052737728 -0.09454481 -0.092597835 -0.34649515 -0.5531728 -0.061199762
-0.1332107 0.102908 0.040838867 0.035763085 -0.60097927 -0.010166511 -0.6807754 -0.050024427
-0.49433732

sequential_stack.1.weight f4 [33, 33]
00000000: a73f 37be 4427 703d f6d5 083e 00dd cebb
00000010: 3de9 dabc 2e13 46bd 6912 9bbd ec9d f9bc
00000020: 001f fcbb 1409 a7bd 4052 1bbe 3647 983d
00000030: 5d28 7b3d a52c 94bd 4010 8a3b e06a a03b
00000040: ec33 c0bd 9844 103d 9317 28be 92a6 0b3e
00000050: f402 dabd ce5e b43d f750 63bd 5190 15be
00000060: a2f5 a9bd 00db c73c b079 bd3d a622 4abd
00000070: ea64 df3d 6207 133e 9871 04bd 76c6 d9bd
00000080: 4f2e 883d 5177 813e 20d9 a43b 5cfb e93d
00000090: 308d 243e 39d2 b03e 1f7c de3f 68e3 813c
000000a0: 68a3 f4be dc2c 20be 5465 2c3d 9176 b3bd
000000b0: 90ce 8f3d 4251 6bbe b435 a7be 68c5 7d3d
000000c0: b814 07be 0222 f9bd 6ced b13d 41e8 adbd
000000d0: b9ed 2abe ecc6 0e3e aed6 7a3f 2190 f13f
000000e0: b046 a73d 0443 a93d ec70 2d3e 8c59 0b3e
000000f0: 10d7 093e 99ae 9e3f 48fc 283d fe3c c6be
00000100: ec5f 083d 0a9c 0fbf cedf b33d c0c6 29bd
00000110: 80d7 5a3c d5d1 b8bd 58b8 033f 7d4e ea3d
00000120: bcdd e23d 18ef 493e 20e1 103e 3e5c 033e
00000130: 02fc 67bd c541 20be 045a 1f3f 9d66 6f3f
00000140: ccc8 f2bd a69c 15be 147d cfbd e2b8 94bd
00000150: d05e eb3c 30a4 df3d 7ac8 f5bd 9f30 793e
00000160: 3e8d 073c b863 223d 678a 1abe a053 f53b
00000170: 6d12 32be d0c9 b83d 2c3c 0cbe a551 17be
00000180: cd85 30bd 08a6 f23d 82c4 003d f013 0b3e
00000190: d451 c33d 2444 363d 00e8 0dbc d07a d33d
000001a0: 56a1 66bd 43d8 b1bd 90f7 18bc dd06 8fbd
000001b0: e8e9 b73c c068 2abe 68e3 da3d 7d6f 19be
000001c0: 8098 17bc 50ed 163d 0b13 02be 3e6b 25be
000001d0: 1c56 f1bd 5c6a 38bd 5456 513d 18f1 563d
000001e0: cf1e b0bd 7c39 c43d 0087 54bc 44b0 7dbd
000001f0: e0a9 b53d 080e a1bc 9af3 efbd e8a1 d53c
00000200: bc4f 163d 3c31 21bd 2a7d 07be 9309 b1bd
00000210: ed09 cbbe 366e 903d b8d9 d83d b0b4 18bd
00000220: 6b2f da3e 7992 04bf 5044 08bd 8737 9fbe
00000230: d980 80bd 8086 563d 936f 13be 0001 10bb
00000240: 4975 e73e 8fc9 bd3e 5039 8ebc 5a43 133e
00000250: 18ce c73d 3907 a5bd a080 913c cc04 1f3e
00000260: 8ce3 293e f079 f2be 1de5 2cbf 55f3 c1bd
00000270: cc18 89bd 5ba1 09be a40e 133d 5243 5cbd
00000280: f4d5 03bf 12a1 65bd 46f2 91bd 1ed7 983d
00000290: fdc2 163e 121e 6ebe c656 20be d632 11be
000002a0: a076 533d 5bf5 2d3f 64b2 34bf 104c 043e
000002b0: 00bb be3f 907f bf3c c11c d5bd 00cc aebc
000002c0: 80b6 95bb d134 a2be 5c6f 7abe bc26 38bd
000002d0: e612 0d3e 9c35 7f3d 68d7 12be e643 16be
000002e0: 402d 863c 74ed 983d e722 c23e 3478 0c3f
000002f0: 9cc8 7bbd 3c17 e03d 44a7 f43d 20ff e03d
00000300: 20d4 e43b 9feb 143f a0c7 efbd 5473 d43e
00000310: 1065 3abd 1bd9 b83e 4fef 0ebf 1365 17be
00000320: 3cb6 ab3d b0f6 803c 0332 033f 311d 8dbe
00000330: 5a0d 21be 41db 8bbf b8f4 cb3c 90a7 68bc
00000340: 3199 a7bd 7423 cb3d 83ad 923e dc31 ed3e
00000350: d09f b6bc 3c7d 653d 6c72 efbd e215 993d
00000360: 28a0 863d 60cb 13bc 3cd5 20bd 756d 0bbd
00000370: 6ac7 bfbe da0c cfbd e0b7 ff3b f6e8 2ebe
00000380: 2048 5abc 14ee d0bd 302e 43be 949e 2b3e
00000390: 20e1 11bf 5c0b 23bd a10c e0be 0462 39bd
000003a0: 480c 753d 7c08 0abd 0488 edbd 5394 11be
000003b0: c0be 173e 9813 f33c 40d0 d2bc 3817 3d3d
000003c0: 039b 1fbe a1dc b7bd c8fa fd3d a051 763c
000003d0: 1c42 643d 3dd4 b2bd c440 2d3e c3eb 2abe
000003e0: 2563 2fbe 6247 853d cab1 1fbe 50c3 793d
000003f0: b830 033e 9254 0abe 3608 323e d6d1 e6bd
-0.17895375 0.058631197 0.1336287 -0.0063129663 -0.026722545 -0.048358135 -0.07571871 -0.03047081
-0.007694125 -0.081560284 -0.15168095 0.074354574 0.06131779 -0.07235078 0.004213363 0.004895553
-0.09384903 0.035221666 -0.16415243 0.1363776 -0.106450945 0.08807145 -0.055497136 -0.14605834
-0.08298804 0.02439642 0.09251726 -0.04934945 0.1090792 0.14358285 -0.032334894 -0.106335565
0.06649458 0.25286344 0.005030766 0.11424896 0.16069484 0.34535387 1.7381629 0.015855506
-0.4778092 -0.15642112 0.04208882 -0.08762849 0.070218205 -0.22980216 -0.3265816 0.06195584
-0.13191497 -0.121646896 0.08687863 -0.084915645 -0.16692246 0.1394307 0.97983825 1.887211
0.081677794 0.08264735 0.16937608 0.13608378 0.13460946 1.2397033 0.04125622 -0.38718408
0.033294603 -0.5609747 0.08782922 -0.04144931 0.013357043 -0.09024397 0.5145316 0.11440752
0.11077449 0.19720113 0.14148378 0.12828156 -0.056636818 -0.15650089 0.6224673 0.9351595
-0.11854705 -0.14610538 -0.10131279 -0.07261826 0.028731734 0.10919988 -0.120011285 0.24334954
0.008273421 0.03964588 -0.15091859 0.0074867755 -0.17389841 0.09022868 -0.13694829 -0.14777239
-0.043096352 0.11848074 0.031437404 0.13581824 0.09537092 0.044498578 -0.00866127 0.10326159
-0.056306206 -0.08683827 -0.009336367 -0.06983731 0.022450402 -0.16641521 0.106879056 -0.14983936
-0.009252667 0.036847413 -0.12702577 -0.16154191 -0.11784002 -0.045023307 0.05110772 0.05247602
-0.08599626 0.09581277 -0.01297164 -0.061935678 0.08870292 -0.019660011 -0.11716385 0.02607818
0.036697134 -0.039353594 -0.1323134 -0.08644404 -0.3965601 0.07052271 0.105884016 -0.037281692
0.42614302 -0.51786 -0.033268273 -0.31097052 -0.06274576 0.052374363 -0.14398031 -0.0021973252
0.4520667 0.3706784 -0.017361313 0.14381161 0.09756106 -0.08058018 0.017761528 0.15529174
0.16590708 -0.47358656 -0.675371 -0.0947024 -0.06694183 -0.13440458 0.035902634 -0.05377514
-0.5149834 -0.05606181 -0.07126288 0.07462905 0.1472282 -0.23253658 -0.15658101 -0.14179549
0.0516268 0.6795251 -0.705847 0.1291964 1.4900818 0.023376256 -0.10405875 -0.02133751
-0.004568875 -0.3168092 -0.24456543 -0.044958815 0.1377674 0.062306985 -0.14339983 -0.14674339
0.016378999 0.074671656 0.37917253 0.54870915 -0.061470613 0.109419316 0.11945966 0.10986161
0.006983295 0.5817203 -0.11707997 0.41494238 -0.045506537 0.36103138 -0.55833906 -0.1478465
0.08384368 0.01574263 0.51248187 -0.27561334 -0.1572775 -1.0926286 0.024896964 -0.014200106
-0.08183516 0.099188715 0.28648004 0.46327102 -0.022293001 0.056027636 -0.11691746 0.07474877
0.06573516 -0.009020656 -0.039265856 -0.034039933 -0.37456828 -0.10109873 0.007803902 -0.17081055
-0.01332286 -0.1020166 -0.19060588 0.16759712 -0.5698414 -0.039805755 -0.43759635 -0.04525949
0.059826165 -0.033699498 -0.115982085 -0.14216737 0.14818859 0.029672429 -0.025734067 0.04616472
-0.15586476 -0.089776285 0.12401348 0.015034109 0.05572711 -0.087318875 0.16919237 -0.16691498
-0.17127664 0.06507756 -0.15595165 0.06097728 0.12811553 -0.13508824 0.17385945 -0.11270492

sequential_stack.1.bias f4 [33]
00000000: d0da 3ebe 04ea ccbe f3af 983e 9a84 eabd
00000010: 1ae3 f63e 5d9b 07bf f668 353d 439d c8bd
00000020: 9397 003f 34d0 8cbe 9015 b53e dd2d 7e3f
00000030: c99e 503f 0cfb 0bbe 8160 38bd 811a 83bf
00000040: c087 1bbb 1db7 43be 2cc8 d4be 7b84 fabe
00000050: fafe 26bf 3d66 8ebe 9283 08be 9a94 66bd
00000060: e223 443f e14d dbbe 8e00 2b3f a8db b2bd
00000070: 34ba 98bd 1ab6 33bf 7adf eebe 8bb6 9dbe
00000080: dd45 01be
-0.18638158 -0.4002229 0.2982174 -0.11451073 0.4822014 -0.5297144 0.04428955 -0.0979562
0.50231284 -0.27502596 0.35368013 0.9928873 0.81492287 -0.13669986 -0.04501391 -1.0242463
-0.0023732036 -0.19112821 -0.4155897 -0.489292 -0.65232813 -0.27812377 -0.1333144 -0.05629406
0.7661725 -0.42832854 0.6679772 -0.08733302 -0.074573904 -0.7019974 -0.46654874 -0.30803332
-0.12624307

sequential_stack.2.weight f4 [33, 33]
00000000: a03e 3dbc 3881 033e c317 15be 9cc7 99bd
00000010: 1f9a 8ebd 30a2 063d e638 083e d79b 07be
00000020: 3e3d 2a3e 2d0c 12be 4945 b9bd 4590 1fbe
00000030: fa95 0c3e 80f6 bebd d888 19bd 1483 23bd
00000040: 5cc4 f63d daaa 853d 8e75 6ebd 62c9 fcbd
00000050: 00e7 24ba 4812 64bd 0048 a339 3f15 8fbd
00000060: 74a5 18bd 004c 81bb f27a 1bbe 7409 59bd
00000070: 2e18 ccbd 1431 a53d cdaf 1ebe a79f 0cbe
00000080: c8e8 9b3d 9f81 803d 00ee b8bf a780 b43e
00000090: c6c6 223e 4c8e 613f 4203 a63e 5fcf 8ebf
000000a0: 543c e4bd 9960 3c3e 4a08 90bd 30c9 0dbe
000000b0: 47d5 8a3f 869b 4b3f bbb7 0ebe 226c 313e
000000c0: 2e5d ca3e 8aa0 933d 95a5 9a3d e625 4d3f
000000d0: d505 8c3e 5ca1 503f 7abe 35bd 6025 e93d
000000e0: 4e84 153e ae0a 8d3f 11ea 83bd 171f 423e
000000f0: 18d8 a63d 2e97 6f3d 0889 dc3e 765f 2f3e
00000100: b445 a73d 1a0b 263e f8a6 173d 3828 bd3c
00000110: 3254 08be 4097 14be 9c51 b1bd 7803 21be
00000120: 80c4 2f3d 9440 273e 48b1 ccbc 37e8 a8bd
00000130: 7cd8 0d3e b606 14be 630f 89bd 9b03 14be
00000140: c4e3 963d a81e d93d 317d 18be 421b 2bbe
00000150: 18d5 e2bc e341 f6bd 60bd 743d 6892 ff3d
00000160: 6df5 07be cc83 033e dc50 d6bd b8b0 693d
00000170: de5d 843d 4ca5 db3d 90f4 6abc 3850 22be
00000180: d859 2e3e 43c5 20be c85e 803d 864a 5c3d
00000190: 851a e4bf 7598 2c3e 0cce 05be cebe 073f
000001a0: b9bd 5c3e 7ae4 aebf fea4 003e 397e 07be
000001b0: 9659 b93c d88a 263f 812d 02be 974b 813e
000001c0: 58ed a73d aa15 ba3d f016 253f bc5b 08be
000001d0: a83c 5a3d 3555 d73e 915d 073f 09ee d53f
000001e0: ec3d a73e 18c9 133e ee6e 09be 4f82 6e3c
000001f0: f1ac 8a3e 336c e63c 982f a1bc e35d 3b3e
00000200: e781 b33e 2c0c 303e 99dc d33e 9ade 18be
00000210: c633 cdbd 01ae 0b3f bd78 a6bd 082f e3bd
00000220: 7e25 0b3f b8eb 33bf 59df 5a3f 60b0 b33d
00000230: 53cf 9c3f eed2 ebbe 1f1c 6c3c 0ce7 973f
00000240: a285 893f ae5e 91bd 254a cf3d 59ef 3cbf
00000250: 8ad8 a5bd 80a5 d73d b001 26be 75e7 69bf
00000260: 37ca fa3f 6c3c 74be 6b54 b8bd 0096 593b
00000270: c914 a33f ce96 69bf 8e01 223e 84fc 303e
00000280: e456 5c3d 155f 47bf 2c57 55be f47d 10bf
00000290: ee8f f2bd 43ae 3cbe c887 25bf 273f a83f
000002a0: 5c48 00be d56f fd3d f72c 1dbf 0e29 99bf
000002b0: 8413 9c3d 4040 80bf 34fc 8e3e 2367 3abf
000002c0: e077 25bf bc6c 48bf d529 96bd f323 b7bd
000002d0: 5241 d1bd 6486 c23d 5a31 babc c0c4 fb3f
000002e0: f3aa 5ebf 547c 423f 6b53 f83f 99fd 9abd
000002f0: c43b 3abd ea27 64be d2fd 903e 160d df3f
00000300: 6cce 27be 8446 e6bd 2349 09bf 97d4 37be
00000310: 8e36 cb3c d45e 133e f672 f0bd 9f09 c0bf
00000320: 8f59 b93e 380d 513d 21d6 253f b6bc 87bd
00000330: 2679 d8bf d09d 013c 17cc 99be a6bd a03d
00000340: 4fd5 68be 419f 933d f71d 453e 5ccf af3d
00000350: 8372 bdbd ce93 4bbc bc1f 3abd 17d5 c73d
00000360: c3a6 d13e 3ce4 7e3b 163d 0e3f 310e 543f
00000370: 08b8 8c3d ddab e6bd b678 9d3e 8fac aa3c
00000380: 9a32 893d 107e 083c b5fa 89bd fd18 053e
00000390: dfeb 373e fbf6 193e 58ee adbd 1c63 543d
000003a0: b2fd 243b b79c e83c f206 203e c3d7 f4bd
000003b0: 0400 8b3c 0ea1 e7bd b6e1 6abd a0e0 f6bd
000003c0: 55ef 72bd 49cc 26be 804f 113d 7c93 27bd
000003d0: c858 1e3e 8864 09be 42a2 24be d85d b63c
000003e0: 891f 1abe 4e4b 6d3d 013f 763c d62e bb3d
000003f0: 1fe2 5b3d 34c6 193d 7f18 31be fa35 903d
-0.0115505755 0.12842262 -0.14559846 -0.075087756 -0.0696299 0.032869518 0.13302955 -0.13243042
0.16624925 -0.14262457 -0.09046418 -0.15582378 0.13729087 -0.0932436 -0.03748402 -0.039919928
0.12049171 0.06526728 -0.058217578 -0.12343098 -0.0006290525 -0.055681497 0.00031143427 -0.06986474
-0.037267163 -0.0039458275 -0.15183619 -0.05298753 -0.099655494 0.080660015 -0.1549675 -0.13732778
0.07612759 0.06274723 -1.4447632 0.35254404 0.15896139 0.8810775 0.3242436 -1.1157035
-0.11144319 0.18396224 -0.07032831 -0.13846278 1.0846337 0.79534185 -0.13937275 0.17326406
0.39524215 0.07208355 0.075511135 0.80135953 0.273482 0.81496215 -0.044371106 0.11384082
0.14601251 1.1018884 -0.06441129 0.18957172 0.08146685 0.058493786 0.43073297 0.17126259
0.08167592 0.16215172 0.03702447 0.023090467 -0.13313368 -0.14510822 -0.08658144 -0.1572398
0.042912006 0.16333228 -0.024986878 -0.082474165 0.13852113 -0.14455685 -0.06692388 -0.144545
0.073676616 0.1060155 -0.14891507 -0.16709617 -0.027689502 -0.12024286 0.059750915 0.12479097
-0.13277216 0.12843245 -0.104646415 0.057053298 0.06463216 0.10724887 -0.014340535 -0.15850914
0.1702646 -0.1570025 0.06268078 0.05378201 -1.7820593 0.16855033 -0.13066882 0.5302552
0.21556748 -1.3663476 0.1256294 -0.13231744 0.022625726 0.6505561 -0.12712671 0.25252983
0.081995666 0.09086163 0.64488125 -0.13316244 0.053280503 0.42057195 0.52877146 1.6713268
0.3266443 0.1443218 -0.13421223 0.014557435 0.2708507 0.028127765 -0.019676015 0.18297534
0.35060045 0.17192143 0.4137924 -0.14928666 -0.100196406 0.54562384 -0.08128498 -0.11092955
0.54354084 -0.70281553 0.8549705 0.08773875 1.225077 -0.46059364 0.0144110015 1.1867385
1.0743906 -0.07098137 0.10121564 -0.73802716 -0.08097942 0.105296135 -0.16211581 -0.913688
1.9592961 -0.23851174 -0.090004764 0.003320098 1.2740718 -0.91245735 0.15820906 0.17283827
0.053793803 -0.7787946 -0.20834035 -0.5644219 -0.11843859 -0.1842585 -0.6466031 1.3144273
-0.12527603 0.12374846 -0.61396736 -1.1965654 0.0762091 -1.0019608 0.2792679 -0.72813624
-0.6463604 -0.78290915 -0.073321976 -0.08942404 -0.10217537 0.09498289 -0.02272861 1.9669418
-0.869796 0.7597096 1.9400457 -0.07567901 -0.045467153 -0.22280851 0.2831865 1.7425869
-0.16387337 -0.112439185 -0.5362722 -0.1795219 0.024806287 0.14391643 -0.11740677 -1.5002936
0.3620114 0.051037997 0.6477986 -0.06627791 -1.6911972 0.007911161 -0.3003852 0.078486726
-0.22737621 0.0720811 0.19249712 0.085844725 -0.09250357 -0.012425376 -0.04544042 0.097574405
0.40947542 0.0038893363 0.5556196 0.82834154 0.06871039 -0.11263249 0.30756158 0.020834235
0.066991046 0.008330837 -0.06737272 0.12997814 0.17961071 0.15035622 -0.08492726 0.05185233
0.0025175628 0.02839504 0.1562765 -0.11955216 0.01696778 -0.113100156 -0.05734416 -0.120545626
-0.059310276 -0.16288866 0.035476208 -0.040912136 0.15463555 -0.13417256 -0.16077521 0.022261545
-0.15051092 0.057933144 0.01502967 0.091397926 0.053682443 0.037542537 -0.17294501 0.07041545

sequential_stack.2.bias f4 [33]
00000000: 8145 0fbe 5391 3e3e 10d0 71bd 844a 42bd
00000010: 2c43 e73e 033b 0abf 2c27 bd3e 3096 2fbe
00000020: ea6c 8bbc e7db ddbd cecf 093f b9df 62be
00000030: 661b 33be e272 a93c 242d 2f3e a51c 1cbf
00000040: fc16 32be 8213 123f b6ee 6d3f 6b15 d13f
00000050: 9da8 253f 61ed d8bf a597 82bc 8c6c c9bf
00000060: 2926 62bf aa0a b93b 0bb8 f93e c692 22be
00000070: e9d1 65bf c01e afbe c77a 9a3e e00c 11bd
00000080: 78fa a7bd
-0.13991357 0.18610124 -0.059036314 -0.047434345 0.45168436 -0.53996295 0.36943948 -0.17147136
-0.017019708 -0.10832959 0.5383271 -0.22155656 -0.1749092 0.020684663 0.17107064 -0.6098121
-0.1739158 0.57061017 0.9294237 1.6334661 0.6471041 -1.6947442 -0.01594145 -1.5736251
-0.8833948 0.005647023 0.48773226 -0.15876302 -0.8977342 -0.34203148 0.30171797 -0.03541267
-0.0820207

sequential_stack.3.weight f4 [2, 33]
00000000: 76a7 2a3e ff8f 49bf bdd8 fabd eae9 bd3f
00000010: 917d bdbf 755c d0bf 8dd5 a0bf 5639 823d
00000020: 8abe 9bbf d08f 803d 4f93 d6bf 737c eabe
00000030: 34e2 1ebf 8008 dbbf 4d48 09bd 04d5 0f40
00000040: 4008 723c 5856 bbbd dcff 93bf 02dc 3cbf
00000050: c8f8 4c40 a156 dabf c59e bcbf fa88 f0bf
00000060: 8b39 26bf da4e 1dbe 7b5e 8140 4d3b de3d
00000070: c75d 5740 3c75 6bbf ac0a 403e 6c91 8d3d
00000080: c033 4e3c e245 07be f907 a83f 8182 19be
00000090: d20f 8a3f a6c5 d7bf 9cea 1abf 08fc 483f
000000a0: 6b38 0e3e 805a 8d3f c64c a8bc 0de3 4ebf
000000b0: 2fec d63e ebd5 9f3f 16df 07bf b4c5 b6bf
000000c0: 3b69 5cbf 6b35 25be 716e 9c3f a8d4 0640
000000d0: 3dea 25c0 4bdb 9ebf ad01 193d fba2 92be
000000e0: e083 a6be fc46 263f 194f 9ebd 9e96 0f40
000000f0: ce8e 13be bfac acbe 02ef bcbf 7a32 f5bf
00000100: 78ec bd3c b665 06be
0.16665444 -0.78735346 -0.12248371 1.483701 -1.4803945 -1.6278216 -1.256517 0.06358592
-1.2167523 0.0627743 -1.6763705 -0.45798072 -0.6206391 -1.7111969 -0.033516217 2.2473764
0.014772475 -0.09147328 -1.1562457 -0.73773205 3.2026844 -1.7057687 -1.4735953 -1.8791802
-0.64931554 -0.1536211 4.0427833 0.108511545 3.3650987 -0.9197576 0.18754071 0.06912503
0.01258558 -0.13210252 1.3127433 -0.1499119 1.0786078 -1.6857193 -0.60514235 0.7850957
0.13888709 1.1043243 -0.02054442 -0.808152 0.4197707 1.2487158 -0.5307478 -1.4279084
-0.8609807 -0.16133659 1.2221204 2.1067295 -2.5924218 -1.2410673 0.037355114 -0.2863997
-0.32522488 0.64952064 -0.077299304 2.243568 -0.14409944 -0.33725545 -1.4760439 -1.9156029
0.023184046 -0.13124737

sequential_stack.3.bias f4 [2]
00000000: e4f8 7a40 e3d3 f6bf
3.921441 -1.9283413
