examples/data/atp-model-dih.pt (torch, 4616 bytes, 8 tensors)

sequential_stack.0.weight f4 [9, 12]
0	0xbe658fde	-0.22418162
1	0xbe87faad	-0.26558438
2	0xbf220fe2	-0.63305485
3	0xbe5a5d1d	-0.21324582
4	0x3f4a6a52	0.7906848
5	0xbfb1d2ca	-1.3892453
6	0xbb4b8b79	-0.0031058474
7	0xbd839c84	-0.06426337
8	0x3ebe9d03	0.37229165
9	0x3f042221	0.51614577
10	0xbe9c1ddd	-0.30491534
11	0x3ee34a3b	0.4439257
12	0xbfe68099	-1.8007995
13	0x3cba332e	0.022729483
14	0xbd7dcbcc	-0.061961934
15	0xbe6d3883	-0.23166089
16	0x3f0607dc	0.5235574
17	0xbe4a5776	-0.19759926
18	0x3f478eb9	0.7795215
19	0x3f2d4ceb	0.6769549
20	0x3ecddf99	0.40209654
21	0x3cb2a297	0.021806045
22	0x3e69ace6	0.22819862
23	0xbd5e82ba	-0.05432389
24	0xbe28a0c0	-0.16467571
25	0x3dc53a33	0.09630241
26	0x3ffe972f	1.9889888
27	0x3e1b049c	0.15138477
28	0xbddf5f69	-0.1090687
29	0x3d5133b7	0.05107471
30	0x3d4b8486	0.04968693
31	0x3d8c8d55	0.068628944
32	0x3f96c370	1.1778393
33	0x3e590600	0.21193695
34	0xbf0e13f3	-0.5549919
35	0xbed6f464	-0.4198333
36	0xbe6aa212	-0.22913387
37	0x3e41ab8f	0.189131
38	0x3f048d70	0.51778316
39	0xbefd68ae	-0.49493927
40	0x3c1d190f	0.009588494
41	0x3ccdc3e4	0.025117822
42	0x3d3439f1	0.04400057
43	0xbe2fdae0	-0.17173338
44	0x3f148b7f	0.58025354
45	0x3e8df358	0.2772472
46	0x3ead5150	0.338511
47	0x3e0f7a9d	0.14011617
48	0xbf488c6b	-0.7833926
49	0x3f5274de	0.82209575
50	0x3e463cfc	0.19359201
51	0xbc48e287	-0.01226104
52	0xbe788963	-0.24271159
53	0x3b2bc7e7	0.002621168
54	0xbe37a07b	-0.17932312
55	0xbf479b67	-0.779715
56	0xbc804274	-0.015656687
57	0xbee83e59	-0.45360067
58	0x3f29afcf	0.6628389
59	0xbe5017f3	-0.20321636
60	0xbf162e52	-0.5866443
61	0x3f0a5b04	0.5404513
62	0xbdf28272	-0.11841287
63	0xbda8bee7	-0.08239537
64	0x3dca5d64	0.09881094
65	0x3d4f615a	0.05062995
66	0xbe089d75	-0.13341315
67	0xbe6145ab	-0.21999232
68	0x3e142fa8	0.14471304
69	0x3dcfc07f	0.101441376
70	0xbf02fbf4	-0.511657
71	0xbf2dd2d1	-0.67899805
72	0xbdb246bf	-0.087049
73	0xbef9ed65	-0.4881393
74	0x3e4d99d5	0.20078214
75	0xbdb27c23	-0.087150835
76	0xbf0bf47b	-0.5466992
77	0x3edd4867	0.432193
78	0xbd540ac7	-0.05176809
79	0x3f761e62	0.9614011
80	0x3d700711	0.05860049
81	0xbe88874a	-0.26665717
82	0xbf39877c	-0.7247236
83	0xbed49807	-0.41522238
84	0xbd9e187f	-0.07719516
85	0xbe8c589a	-0.27411348
86	0x3e1c81bf	0.15283869
87	0xbf03ccc9	-0.5148435
88	0x3dd449a8	0.10365611
89	0xbf1a311f	-0.602312
90	0x3d57db1d	0.052699197
91	0x3ec43f9b	0.38329777
92	0x3ccdb46c	0.025110446
93	0x3ec13cc0	0.3774166
94	0x3eee2495	0.46512285
95	0xbf15e2ab	-0.5854899
96	0x3deb5170	0.11490142
97	0xbba45f20	-0.0050162226
98	0xbeeaf5c0	-0.45890617
99	0x3eb01c4a	0.34396583
100	0x3e4f70a4	0.20257813
101	0xbba065cc	-0.0048949476
102	0xbd482f7e	-0.048873417
103	0x3cc350b0	0.023842186
104	0xbe7f9e7b	-0.24962799
105	0xbdbaae13	-0.09115233
106	0xbf2798f8	-0.65467787
107	0xbf01068b	-0.5040061

sequential_stack.0.bias f4 [9]
0	0x3eefbf85	0.46825805
1	0xbe82db0a	-0.2555774
2	0xbe9180d3	-0.28418598
3	0x3fd49aaa	1.66097
4	0x3f66b43d	0.9011877
5	0x3f4d388c	0.8016441
6	0x3e9a35d8	0.30119205
7	0x3f826781	1.0187837
8	0x3f8a7eb7	1.081992

sequential_stack.1.weight f4 [9, 9]
0	0xbf57f19f	-0.8435306
1	0x3f634dac	0.8879039
2	0x3f601043	0.87524813
3	0x3f1e8db3	0.61934966
4	0x3ee060a5	0.43823734
5	0x3fb3a10d	1.4033524
6	0x3f3aacec	0.7292011
7	0x3e58bcf7	0.21165834
8	0x3f82063d	1.0158154
9	0x3eda0618	0.42582774
10	0x3f47c538	0.78035307
11	0x3f60fd18	0.8788619
12	0x3f261e7a	0.64890254
13	0x3efb2eff	0.49059293
14	0xbf1fd7bf	-0.6243858
15	0xbda6f0b6	-0.08151381
16	0xbe95ccc6	-0.29257792
17	0x3f636216	0.8882154
18	0x3f5521ba	0.8325459
19	0xbfb8fc43	-1.4451984
20	0x3f05ae08	0.52218676
21	0x3f1feb66	0.62468565
22	0xc0ed5226	-7.416278
23	0xbe3fd1e5	-0.18732412
24	0x3e7bcf69	0.2459084
25	0xbf3930ef	-0.7234029
26	0x3f40742e	0.75177276
27	0xbdee98d9	-0.11650247
28	0x3d83b5ed	0.06431184
29	0x3ce07294	0.027398385
30	0xbde25f12	-0.110532895
31	0xbe408677	-0.18801294
32	0xbcafb6cb	-0.021449467
33	0x3d4abfeb	0.049499433
34	0xbe4ffe77	-0.20311914
35	0x3c00df4c	0.007865738
36	0x3e80da8f	0.25166747
37	0xbef43fea	-0.47705013
38	0xbfcc02e0	-1.5938377
39	0x3f59b3a8	0.8503976
40	0xbfaa01b2	-1.3281767
41	0xbf50554d	-0.8138016
42	0x3f91515f	1.1352957
43	0xbe8feb69	-0.2810929
44	0xbf4b7f2e	-0.79490936
45	0xbe50e581	-0.20400049
46	0x4025a776	2.588346
47	0x3e8a0f66	0.26964873
48	0xbec6abb5	-0.38802877
49	0x3f51bd59	0.81929547
50	0x3f4b741d	0.7947405
51	0xbda64b57	-0.08119839
52	0x3f2262d2	0.6343204
53	0xbd765e68	-0.060148627
54	0xbf62e87e	-0.88636005
55	0xbf09810e	-0.53712547
56	0xbdec805d	-0.11547921
57	0x3e2e794d	0.1703846
58	0xbf99902a	-1.199712
59	0x3f57e658	0.8433585
60	0xbf2f4a61	-0.6847287
61	0x3f962874	1.1731095
62	0x3d7425d9	0.059606407
63	0xbf715462	-0.9426938
64	0xbefe8dd3	-0.49717578
65	0x3fcd321f	1.6030921
66	0x3ec298b0	0.38007116
67	0x3ecbf2a9	0.39833573
68	0x3da2f681	0.07957173
69	0x3f1e4f89	0.6184011
70	0x3edc66e7	0.43047258
71	0x3f9f28f4	1.2434373
72	0xbe276143	-0.16345696
73	0xbe8b0ea6	-0.27159613
74	0x3d856c76	0.06514828
75	0xbe084640	-0.13308048
76	0x3e0aa16b	0.13538139
77	0xbe615a0d	-0.22007008
78	0xbe466f73	-0.19378452
79	0xbe7627a6	-0.24038562
80	0xbe7a9a08	-0.24472821

sequential_stack.1.bias f4 [9]
0	0xbdbcd391	-0.092200406
1	0x3f4587c1	0.7716027
2	0x3f8301b8	1.02349
3	0xbe8c2423	-0.2737132
4	0x3f6c6815	0.92346317
5	0x3f200b5c	0.62517333
6	0x3f9a698f	1.2063464
7	0x3f88959f	1.0670661
8	0xbea8b24f	-0.3294854

sequential_stack.2.weight f4 [9, 9]
0	0xbfb3fa45	-1.4060751
1	0xbf15c835	-0.58508617
2	0x401a2d4d	2.409015
3	0x3e43f35e	0.19135806
4	0x3eb6ecbc	0.3572749
5	0xc0258c11	-2.586674
6	0x401908c5	2.3911602
7	0x4000c77a	2.012175
8	0x3d99b320	0.075048685
9	0x3f8731f7	1.0562123
10	0xbe228ec0	-0.15874767
11	0x3e4c8cc2	0.1997557
12	0x3ce0ca8d	0.027440334
13	0xbf1e4c26	-0.61834943
14	0x3eac5328	0.33657193
15	0xbf426e3d	-0.7594946
16	0x3f88c692	1.0685599
17	0x3dc02a84	0.09383109
18	0x3f042d5a	0.516317
19	0x3f8dcf8a	1.1078961
20	0xbf85567c	-1.0417018
21	0x3e2933a7	0.1652361
22	0xbf9d8788	-1.2306986
23	0xbebd4eb7	-0.36974117
24	0xbf5590c3	-0.83424014
25	0x3fa7a03b	1.3095773
26	0xbe95f1c9	-0.2928603
27	0x3d0be001	0.034149174
28	0x3f7fc2b6	0.9990648
29	0xbfd5aef5	-1.6694018
30	0x3e9beafa	0.3045271
31	0x3f9c7545	1.2223288
32	0xbe15080b	-0.1455385
33	0x3ebc4b6d	0.36776295
34	0x3e2a31b8	0.16620529
35	0x3e0aeed1	0.13567664
36	0x3e853808	0.2601931
37	0x3eea67c1	0.45782283
38	0x3db2f377	0.087378435
39	0xbe679359	-0.22614802
40	0x3e4e8de8	0.2017132
41	0xbe5f765e	-0.21822497
42	0x3f24a744	0.6431773
43	0x3e809dc2	0.2512036
44	0xbd824f34	-0.06362763
45	0x3f99891f	1.1994971
46	0xbee3376a	-0.44378215
47	0xbf98bac5	-1.1931998
48	0x3d83cde5	0.06435756
49	0xbe39a400	-0.18128967
50	0xbeb90a90	-0.3614087
51	0x3f78fecd	0.97263795
52	0xbd8d204a	-0.06890924
53	0xbd3392eb	-0.043841284
54	0xbe9344cb	-0.28763422
55	0x3f18755d	0.5955408
56	0xbf8ce962	-1.1008723
57	0xbe855de4	-0.26048195
58	0xbf3cfd25	-0.7382377
59	0xbeadd4f1	-0.33951524
60	0x3f56a217	0.8384108
61	0x3f61c72e	0.8819455
62	0x3e3920da	0.18078938
63	0x3f020c41	0.5079995
64	0xbfdc9c6e	-1.7235239
65	0x400729a8	2.1119175
66	0x3e947d7b	0.29001984
67	0x3e8e1160	0.2774763
68	0x3f61cc85	0.882027
69	0x3f6695e4	0.90072465
70	0x3ed901b6	0.42384118
71	0x3d021f6b	0.031768244
72	0x3ec5351a	0.38517076
73	0x3f264f13	0.6496441
74	0xc03b766c	-2.929103
75	0x3d113b25	0.035456795
76	0xbfd92144	-1.6963277
77	0xbe166d93	-0.14690237
78	0x3ed5bad3	0.41744098
79	0x3e5e4250	0.21704984
80	0xbd228112	-0.039673872

sequential_stack.2.bias f4 [9]
0	0x4027f2a5	2.6241848
1	0x3e6c5ffd	0.23083492
2	0xbf26bbeb	-0.6513049
3	0x3f4742bb	0.778362
4	0x41cb63f7	25.423811
5	0xbfba0e9a	-1.4535706
6	0x3f933085	1.1499182
7	0xbf399910	-0.7249918
8	0x3f8f3842	1.1189044

sequential_stack.3.weight f4 [2, 9]
0	0x40a8266d	5.2546906
1	0x3f989dc0	1.1923141
2	0xc01c8d52	-2.4461255
3	0xc0112e84	-2.268464
4	0xbed419ef	-0.41426036
5	0x3f6950d0	0.91138935
6	0xbe7cae7c	-0.24675936
7	0x3eb702de	0.35744375
8	0xc01748b8	-2.3638134
9	0xbffea5a5	-1.9894301
10	0x3f481ed6	0.7817205
11	0xbea74d9c	-0.326764
12	0x3ec27283	0.3797799
13	0x40814f20	4.040909
14	0xc05ae62e	-3.420299
15	0x400be2d4	2.1857195
16	0x3fec263c	1.8449168
17	0x3e892721	0.26787665

sequential_stack.3.bias f4 [2]
0	0xc1d5a37f	-26.704832
1	0x420ede3f	35.717037
